expert-system-frontend/public/model.onnx (onnx, 116725 bytes, 1 tensors)

values f4 [2, 2, 1967]
00000000: 2709 003f 7e5c 1c3f 9e00 e43e 9da2 1a3f
00000010: 7147 dc3e a49b 0d3f fc71 eb3e 0000 803f
00000020: 3ef8 e03e abaa 2a3e cdcc cc3e abaa 2a3f
00000030: 0000 803f 0000 0000 0000 0000 0000 0000
00000040: efee ee3e 7044 013f 0000 0000 1299 063f
00000050: 90c1 f93e bcbb 3b3f a2bc 863e 0000 803f
00000060: b5b4 343e 0000 803f 0000 003e 29a5 143f
00000070: 9162 283f 40af 323f 713d 0a3f d60d 263f
00000080: f734 423f 0000 803e c54e 6c3e 0000 0000
00000090: 0000 403f 721c 473f c13a 5a3f 2a6b 4a3f
000000a0: 0000 803f ca6b 283f f43c 4f3f f1f0 f03e
000000b0: 0000 003f 721c 473f 0000 0000 0000 603f
000000c0: 0000 803f 0000 0000 b1dc d33e 2549 923e
000000d0: abaa 2a3f 8988 083e 0000 403f 0000 803f
000000e0: 0000 0000 ee5d 073f 30e8 0b3f 659f 033f
000000f0: 0000 803e 0000 803f abaa 2a3e abaa 0a3f
00000100: cdcc 143f 0000 b03e 4316 323f 0000 403f
00000110: 2549 123f 8a9d 583f abaa aa3e 0000 0000
00000120: abaa 2a3f 9a99 993e 0000 0000 c54e ec3e
00000130: 0000 0000 9a99 193f 0000 403f 0000 0000
00000140: bacd c33e a1bd a43e 9a99 193f 9a99 993e
00000150: 0000 803f 0000 0000 6666 663f 0000 803f
00000160: 0000 0000 43d3 9d3e 8953 bf3e c330 8c3e
00000170: 8fc2 f53d b76d 5b3e 0000 0000 308f ad3e
00000180: 2235 c13e 0000 0000 5cd9 e73e 0000 803f
00000190: eefa d93e c7fa d03e 0000 803f 3527 813e
000001a0: 5555 653e 5dca 253e 9796 163e abaa 2a3f
000001b0: f102 993e 6218 063f 2fba 683e dedd dd3e
000001c0: 2549 123f 0000 803f cdcc cc3e 398e e33d
000001d0: 0000 0000 0000 803f f5d3 cf3e 49f0 d63e
000001e0: a10e 6a3e cdcc 4c3f 0000 0000 0000 803f
000001f0: 8988 083e b1dc d33d abaa 2a3d cdcc cc3e
00000200: 0000 803f 0e74 da3e 199c 0f3f 4a90 273f
00000210: b982 183f 0000 803f 2fa1 bd3e 0000 003f
00000220: 0000 0000 8c23 d43e 88c6 fa3e f540 e53e
00000230: c54e 6c3f 8586 cc3e ac31 913e 4661 d23e
00000240: 5213 8c3e 18c8 a43e 2549 923d 0000 803f
00000250: 0000 0000 af5e bd3e 0000 003f 0000 603f
00000260: 0000 d03e 4e36 593e 3694 573d b76d db3e
00000270: 3694 573d 0000 0000 abaa aa3e 0000 0000
00000280: 0000 803f 666f 5e3f 798f 773f 0000 603f
00000290: efee 6e3f 0000 803f 0000 403f 0000 803f
000002a0: 0000 0000 0000 0000 3096 7c3f 0000 803f
000002b0: 0000 703f abaa 2a3f 0000 803f 0000 0000
000002c0: 0000 803f fab3 5c3f 9cde 743f 798f 773f
000002d0: 0000 403f 0000 0000 0000 803f 6d1d 7a3f
000002e0: cdcc 7c3f efee 6e3f 0000 803f 0000 0000
000002f0: 0000 803f b76d 5b3f 0000 0000 0000 803f
00000300: 0000 0000 7be4 5a3f db99 553f 0000 0000
00000310: 8ede 553f 9321 583f 4d34 513f 0000 0000
00000320: b9a7 513f dc31 643f 38bd 693f d0ba 413f
00000330: 0000 3c3f 0000 0000 f33e 453f 0000 0000
00000340: a5ee 4b3f 70ad 643f 0000 0000 9535 653f
00000350: 8eea 6f3f 4316 723f 2fba 683f abaa 7a3f
00000360: 6edb 363f 5555 553f 0000 0000 19a7 5c3f
00000370: 27cc 6f3f 0000 403f bf58 723f 3333 533f
00000380: a909 463f 7b09 6d3f 3c3f d23e fb74 083f
00000390: a2e8 073f edb6 093f 9c83 013f 2fff 083f
000003a0: 599d 0a3f 5e43 093f f79c 0c3f 5555 d53e
000003b0: 0000 803f 8c2e 3a3e cdcc cc3d 0000 0000
000003c0: 0000 003f 0000 803f d438 ef3e b443 e03e
000003d0: ec60 cc3e 0000 0000 0f56 d33e 4444 043f
000003e0: 721c 473f 6eb8 e13e 794a 103f d158 1f3f
000003f0: 8a9d d83e 1cc7 313f abaa aa3d 0000 0000
0.50013965 0.6107863 0.4453172 0.6040438 0.43023255 0.55315614 0.459854 1.0
0.43939394 0.16666667 0.4 0.6666667 1.0 0.0 0.0 0.0
0.46666667 0.5049505 0.0 0.52577317 0.4878049 0.73333335 0.2631579 1.0
0.1764706 1.0 0.125 0.58064514 0.657754 0.6979866 0.54 0.6486486
0.7586207 0.25 0.23076923 0.0 0.75 0.7777778 0.852459 0.7906977
1.0 0.65789473 0.8095238 0.47058824 0.5 0.7777778 0.0 0.875
1.0 0.0 0.41379312 0.2857143 0.6666667 0.13333334 0.75 1.0
0.0 0.528777 0.54651165 0.5141509 0.25 1.0 0.16666667 0.5416667
0.58125 0.34375 0.6956522 0.75 0.5714286 0.84615386 0.33333334 0.0
0.6666667 0.3 0.0 0.46153846 0.0 0.6 0.75 0.0
0.38242894 0.32175925 0.6 0.3 1.0 0.0 0.9 1.0
0.0 0.30825242 0.3736842 0.27380952 0.12 0.21428572 0.0 0.33898306
0.3773585 0.0 0.4528302 1.0 0.42574257 0.40816328 1.0 0.25225225
0.22395833 0.16190477 0.14705883 0.6666667 0.29885057 0.52380955 0.22727273 0.43333334
0.5714286 1.0 0.4 0.11111111 0.0 1.0 0.40591398 0.41980198
0.22857143 0.8 0.0 1.0 0.13333334 0.10344828 0.041666668 0.4
1.0 0.42666668 0.5609756 0.6545454 0.59574467 1.0 0.37037036 0.5
0.0 0.4143337 0.48979592 0.4477612 0.9230769 0.3994638 0.2835821 0.4108984
0.2735849 0.3218391 0.071428575 1.0 0.0 0.369863 0.5 0.875
0.40625 0.21212122 0.05263158 0.42857143 0.05263158 0.0 0.33333334 0.0
1.0 0.8688873 0.96703297 0.875 0.93333334 1.0 0.75 1.0
0.0 0.0 0.9866667 1.0 0.9375 0.6666667 1.0 0.0
1.0 0.8621212 0.95652175 0.96703297 0.75 0.0 1.0 0.9770115
0.9875 0.93333334 1.0 0.0 1.0 0.85714287 0.0 1.0
0.0 0.85504884 0.8343789 0.0 0.83542717 0.8442623 0.8172043 0.0
0.8189655 0.8913858 0.9130435 0.7567568 0.734375 0.0 0.7704918 0.0
0.7966102 0.89327145 0.0 0.89534885 0.9371728 0.9456522 0.90909094 0.9791667
0.71428573 0.8333333 0.0 0.8619247 0.93670887 0.75 0.94666666 0.825
0.7735849 0.9259259 0.4106387 0.533035 0.53089345 0.5379475 0.50591445 0.5351438
0.54146343 0.5361842 0.5492701 0.41666666 1.0 0.18181819 0.1 0.0
0.5 1.0 0.46723044 0.43801653 0.39917696 0.0 0.41276595 0.51666665
0.7777778 0.4408602 0.56363636 0.622449 0.42307693 0.6944444 0.083333336 0.0
