model_preparation/decision_tree_thyroid_cancer_prediction.onnx (onnx, 116723 bytes, 1 tensors)

values f4 [2, 2, 1967]
00000000: 2709 003f 6ba8 e23e 5d80 0c3f fa7e 073f
00000010: 0550 0b3f 330b 0f3f 3694 573e 0000 003f
00000020: 0000 0000 0000 803f d989 9d3d abaa aa3e
00000030: 0000 803f 0000 0000 0000 0000 e087 0f3f
00000040: e6a6 0a3f e76a 2e3f 3045 3e3f cdcc 4c3e
00000050: 0000 803f 0000 0000 0b59 483f 4617 5d3f
00000060: 0ad7 233f d3d2 d23e 0000 003e 0000 0000
00000070: 0000 003f abaa 2a3f 0000 803f cdcc cc3e
00000080: 1817 093f dbb6 0b3f ebea ea3e bee5 db3e
00000090: 9224 493f ff0b 0e3f f43c 4f3f 1731 0d3f
000000a0: fcf8 f13e 0ad7 a33e a1bd 043f 5555 553e
000000b0: 0d7d 063f 29a5 143f 8c31 c63e b2ac 173f
000000c0: 41d9 fb3e d701 dd3e 2fba e83e 7dd6 0d3f
000000d0: 61b9 a73e 0000 0000 9185 2c3f 515e 433f
000000e0: e438 4e3f 0000 0000 0000 803e 0000 803f
000000f0: 2549 123e 83ef 1b3f 4992 643f 7b09 6d3f
00000100: 0000 403f 0000 803f 0000 0000 d911 1a3f
00000110: 0000 503f 4992 643f 0000 803e 4670 183f
00000120: ac86 243f 6400 113f e0b2 063f fb66 063f
00000130: a97d 073f 905b 173f 26de 0f3f 943e e93e
00000140: b76d 5b3e 2184 103f 0000 203f 0000 403f
00000150: 143b 113f 0000 503f 2549 123f 0000 0000
00000160: cdcc 4c3f ae47 613f 0000 803f 0000 403f
00000170: 3cb9 053f 682f a13e d989 1d3f 8c2e 3a3f
00000180: 0000 0000 cec7 603e 26b4 973e 2549 923d
00000190: 82ea 063f 2e0b 0d3f 3762 0e3f abaa 2a3e
000001a0: a64c 033f f1f0 703d cd9e 043f c7c6 c63e
000001b0: 3694 d73d 0000 803f 398e 633d 0000 0000
000001c0: 0000 803f 1f7c f03e 0000 803f bef7 de3e
000001d0: abaa 2a3e 0000 0000 0000 803f 0000 003f
000001e0: 0000 803f daa8 ef3e 398e 633f 0000 003f
000001f0: 0000 803f 0000 0000 0000 803f 8e24 043f
00000200: 19d5 053f 25c4 073f c995 033f 4684 043f
00000210: 78bd 0d3f 74d1 c53e 0000 803f 6666 a63e
00000220: 0c94 103f 6dde 273f f755 0b3f 5dde 013f
00000230: 0ca5 073f 327e bb3e ae0d 0a3f 25bb f63e
00000240: bb38 f13e 77c4 1d3f ec51 b83e 1e1e 9e3e
00000250: 0000 403f 0000 803f 0000 0000 0000 903e
00000260: 2549 123f 3f82 7b3e b76d 5b3f 0000 0000
00000270: 0000 803f 6110 0e3f 464c 103f e85e 043f
00000280: 6666 663f 0000 803f 0000 0000 1bc0 023f
00000290: e9a2 8b3e bc0c 053f f2a4 153f 4325 0f3f
000002a0: 0000 3c3f 76ec 0b3f 0f87 243f 0843 273f
000002b0: 0000 c03e e8e7 e73e 6c76 d43e 3f24 f03e
000002c0: 398e e33e 0000 803f f1f0 703e 0000 0000
000002d0: cdcc cc3e 4316 323f 0000 803f 8988 083f
000002e0: 0000 0000 abaa 2a3f 3e3a f93e 53a7 f63e
000002f0: 88bc fa3e 6666 063f b800 133f fe79 0c3f
00000300: 9a99 293f 5898 d53e 3548 833e df7b ef3e
00000310: 7fa8 e93e e9a2 8b3e abaa 2a3f f98a 2f3e
00000320: 81d5 f13e 6405 c23e bae2 fc3e f639 a43e
00000330: b923 6e3e 0000 403f 0000 0000 0000 803f
00000340: 7dcb 373e abaa 2a3f e438 0e3e 3333 333f
00000350: 0000 803f 0000 803e 0000 803f 0000 0000
00000360: 0000 803f e7bf e63e 8887 873e 8c2e 3a3e
00000370: 6edb 363f abaa aa3e 0000 0000 0000 803f
00000380: 0000 803f 3ba8 033e 0000 803f d3d2 d23d
00000390: 2a67 b73d ca26 9b3d 0000 803f 0000 803f
000003a0: b81e 053f 0000 603f 0000 803f 0000 003f
000003b0: 0000 803f 0000 0000 b5b4 b43e b76d 5b3e
000003c0: 0000 803f abaa aa3d 0000 803f 0000 0000
000003d0: 0000 803f cd2f f83e f86a 0b3f 1cc7 f13e
000003e0: 4a29 253f e2e1 613f 0000 0000 0000 703f
000003f0: 6edb b63e 0000 003e abaa 2a3f 3f21 ce3e
0.50013965 0.44269118 0.54883367 0.52928126 0.54418975 0.55876464 0.21052632 0.5
0.0 1.0 0.07692308 0.33333334 1.0 0.0 0.0 0.56066704
0.54160917 0.6813187 0.7432432 0.2 1.0 0.0 0.7826087 0.8636364
0.64 0.4117647 0.125 0.0 0.5 0.6666667 1.0 0.4
0.53550863 0.5457589 0.45882353 0.42948717 0.78571427 0.55487055 0.8095238 0.5515303
0.47260273 0.32 0.5185185 0.20833333 0.5253456 0.58064514 0.38709676 0.5924789
0.4918919 0.43165466 0.45454547 0.5540541 0.3275862 0.0 0.67391306 0.7631579
0.8055556 0.0 0.25 1.0 0.14285715 0.6091234 0.89285713 0.9259259
0.75 1.0 0.0 0.60183483 0.8125 0.89285713 0.25 0.59546316
0.6426799 0.5664122 0.5261669 0.52500886 0.5292612 0.5912409 0.56198347 0.45555556
0.21428572 0.5645161 0.625 0.75 0.5673077 0.8125 0.5714286 0.0
0.8 0.88 1.0 0.75 0.5223577 0.3148148 0.61538464 0.72727275
0.0 0.2195122 0.2962963 0.071428575 0.5270158 0.55095184 0.55618614 0.16666667
0.5128883 0.05882353 0.5180481 0.3882353 0.10526316 1.0 0.055555556 0.0
1.0 0.46969697 1.0 0.43548387 0.16666667 0.0 1.0 0.5
1.0 0.4680851 0.8888889 0.5 1.0 0.0 1.0 0.5161828
0.52278286 0.5303367 0.5140043 0.51764333 0.5536723 0.38636363 1.0 0.325
0.564759 0.6557377 0.54428047 0.50729924 0.52986217 0.36619717 0.53927124 0.48189655
0.47113594 0.61627907 0.36 0.30882353 0.75 1.0 0.0 0.28125
0.5714286 0.24561404 0.85714287 0.0 1.0 0.5549374 0.56366384 0.51707315
0.9 1.0 0.0 0.5107438 0.27272728 0.51972556 0.5845481 0.5591623
0.734375 0.54657686 0.64268583 0.65336657 0.375 0.45294118 0.414966 0.46902654
0.44444445 1.0 0.23529412 0.0 0.4 0.6956522 1.0 0.53333336
0.0 0.6666667 0.48677248 0.48174533 0.48971963 0.525 0.5742297 0.54873645
0.6625 0.41717792 0.25641027 0.46774194 0.45636365 0.27272728 0.6666667 0.17142858
0.47233203 0.37894738 0.4939173 0.3207547 0.23255815 0.75 0.0 1.0
0.17948718 0.6666667 0.1388889 0.7 1.0 0.25 1.0 0.0
1.0 0.45068285 0.2647059 0.18181819 0.71428573 0.33333334 0.0 1.0
1.0 0.12857144 1.0 0.10294118 0.08955224 0.07575758 1.0 1.0
0.52 0.875 1.0 0.5 1.0 0.0 0.3529412 0.21428572
1.0 0.083333336 1.0 0.0 1.0 0.4847397 0.54460096 0.4722222
0.6451613 0.88235295 0.0 0.9375 0.35714287 0.125 0.6666667 0.4025974
