model_preparation/nn_model.onnx (onnx, 98005 bytes, 5 tensors)

layers.0.weight f4 [512, 24]
00000000: 6e8a 79bc 8bc4 eb3d b06c 23be 86c2 6c3e
00000010: 07bc cfbd 8db2 0dbe f962 213e 97d3 2fbe
00000020: 657d 6ebd b013 0e3c 4213 f23c cdda dabd
00000030: a28d edbd 4fa7 303e 6fec dcbd 6d11 02be
00000040: 87b0 4a3d 389e c1bd eff9 3e3e c347 84bd
00000050: 3e4e 243e e3e7 f23d 6908 4d3b e2e2 dbbb
00000060: 2775 3e3e 259f 0e3e 8efc 96bd 45f0 1bbe
00000070: 698a 96bc 2ad0 babb adc6 75bd f871 50be
00000080: d95e 573e c256 213e 5fd8 79bd 24a8 243e
00000090: 5f8c 63bd 535e 41be 9f7a 213e 6b83 6e3d
000000a0: 5c8d 1cbe 720f e9bd b13e 823d abfe 52be
000000b0: d3e1 b0bd 04b1 303d 6b61 553d d3d4 9fbd
000000c0: b6f6 493e 77aa 32bd eb8e 273d 44d1 d73c
000000d0: bb1c 12be 2813 b8bd 717a 06bc 723b 5c3e
000000e0: b9e2 a13d 2c21 3bbe 2965 283e 5d95 71be
000000f0: a240 f6bb 6631 113e c357 85bd f57b 2d3e
00000100: 5978 67bd 995e 2dbd e5fc 2d3b abcd 3f3d
00000110: f15d 2abe a582 8d3d b934 3d3e 7140 fe3d
00000120: e05c 653b 9316 f43d 1739 c23c 053c 60bd
00000130: 35d5 4abd 154e e0bd ab14 e3bd d57c b33c
00000140: b4c3 733e a928 91bd 678f 003e 2224 3cbd
00000150: 13fe 6abc a694 fcbd 069d 1b3d f7b9 083e
00000160: 83fa e83d a42e 303e 86a5 143e c154 6ebe
00000170: d6c6 eabc 61fb 2dbe a1ec 8b3d 4231 c63d
00000180: 85bc b4bc c92a fd3d caa0 4abe 1ea1 123e
00000190: 4de2 ca3d 19d9 1fbe e47d 773d 0514 d8bc
000001a0: 1f7b 2ebd 7435 40be ccb9 803b 4f19 0abd
000001b0: a757 293e ecc0 20be 28d2 19be 5dc1 073d
000001c0: 2ea8 bf3d 031e f03d 4ea6 e2bb 2df1 0ebe
000001d0: afa6 093e 2928 62be 937a ed3c 4bf4 48be
000001e0: aaaf 1ebe f9e2 003e 81e9 323e 3623 3f3e
000001f0: b4b2 0ebe 0107 b8bd d7c5 a4bd aa08 aebd
00000200: 2a1e 5cbe d212 4dbd 9952 953d d505 20be
00000210: 2807 a13c 86b6 b73d a72c dbbd 44b3 99bd
00000220: 8273 163e b718 363e 55a2 0f3e 8ea3 743d
00000230: 0a18 843c a39c ba3d 4c5f ec3d 27ef 95bd
00000240: 63af 9f3d d629 4ebe 9c58 49be 45fa 6f3d
00000250: 3acc 72bd 3b68 9b3c 0578 f0bd 8202 843e
00000260: 246c a2bd 833f 2cbe fb01 b83d c0d1 0abe
00000270: 8198 b33d 686b cb3d c3f0 eb3d 1eda f0bd
00000280: 898c 04b9 e137 04be 5f6c 953d 6cb5 ed3d
00000290: 3cd6 483e 3f6e 72be caa3 023e 39bf 77bd
000002a0: 85f4 ebbd 7378 cb3d 39f9 e53b 8806 b7bd
000002b0: 0fa3 2abd a68d 89bd 3565 073e f583 cfbd
000002c0: 2a6d 79be e9ff df3d f13a 9cbc 8c4f f7bd
000002d0: b6f3 35bd 666d e1bd 280a a4bd 22d4 3b3e
000002e0: 320c 533e 0b13 9cbd 9427 dfbd 978e ca3d
000002f0: c7a6 663e 2223 a6bd 8095 b2bd f777 7bbe
00000300: 7261 333e f45a 0fbe cb62 ccbd 7580 1cbe
00000310: 631f 0c3e 5d8c 333e bf24 3b3e bb22 c83d
00000320: cdcd 32be 08b1 e1bc 7296 7b3d 84bc 6e3d
00000330: 4e49 ef3c 9999 a73d a2ba b33d c7a4 b4bd
00000340: 4e7f 0dbe ba11 323e 4ade 4a3e 8c47 fc3c
00000350: 9088 ec3d eff1 38be 8988 9c3c f818 76be
00000360: de79 503e ae39 7f3c efc8 1abe 14a5 8cbd
00000370: bdac 7dbd c33a 21be 856f 06be d4cc 4bbe
00000380: 683f 5a3e f3bd 3cba 4339 af3c 12ee 80be
00000390: 1382 ed3d 9c27 be3d 7837 283d 4669 463c
000003a0: b966 ea3c 0c40 ae3d b7db 0c3e cce7 7cbe
000003b0: 6727 a8bd e22a b6bd 757d d33d 66e9 77bc
000003c0: 26ac 23be e59b 2c3e 6542 34be e6b3 893d
000003d0: 24c9 7c3d 6968 c6bd 4efd fb3d 017e 2d3e
000003e0: 7cca 5abd 1353 a33d ac18 783e 19a0 3a3e
000003f0: b201 c63d e8e4 a43d 8f34 b3bd d5d3 85bd
-0.015230758 0.11512097 -0.1595943 0.2312108 -0.10143285 -0.13837643 0.15760411 -0.17170559
-0.058225054 0.008671686 0.029550198 -0.10686264 -0.1159928 0.17251323 -0.10787284 -0.1270196
0.049484756 -0.09454006 0.1865003 -0.06459 0.16045472 0.11860635 0.003128553 -0.006710396
0.18599378 0.13927896 -0.0737239 -0.15228374 -0.018376546 -0.0057010846 -0.060003925 -0.20355976
0.21032275 0.15755752 -0.060997363 0.16079766 -0.05555379 -0.18883638 0.15769432 0.0582308
-0.152883 -0.11379899 0.06359614 -0.2060496 -0.086368226 0.043137565 0.05209486 -0.07804265
0.19723019 -0.0436196 0.04090778 0.026344903 -0.14268772 -0.08988029 -0.008207903 0.21507052
0.07904572 -0.18274373 0.1644484 -0.23592134 -0.007515029 0.14179 -0.0651088 0.16941817
-0.056511257 -0.042326543 0.0026548442 0.046827 -0.16637398 0.06909684 0.18477143 0.12414635
0.0034997985 0.11918368 0.023708863 -0.05474474 -0.049519736 -0.10952393 -0.110879265 0.02191011
0.23805124 -0.070878334 0.12554704 -0.045932896 -0.014342803 -0.1233304 0.037991546 0.1335219
0.11375906 0.17205292 0.14516267 -0.23274519 -0.028659265 -0.16990425 0.06832243 0.09677364
-0.02206255 0.12361676 -0.19787899 0.14319274 0.09906445 -0.1561016 0.060422793 -0.026376734
-0.042597886 -0.18770391 0.0039283987 -0.033715542 0.16537343 -0.15698594 -0.15021574 0.03314339
0.093582496 0.11724474 -0.0069167977 -0.13959189 0.13442491 -0.22085632 0.028989112 -0.1962444
-0.15496698 0.12586583 0.17471887 0.18665776 -0.13935357 -0.08985711 -0.080455475 -0.08497746
-0.21495882 -0.050066777 0.07291145 -0.15627225 0.019656733 0.089703605 -0.10701876 -0.07504895
0.146925 0.17782865 0.14026769 0.05972629 0.016124744 0.09111907 0.11541614 -0.07321005
0.07797124 -0.20133147 -0.19662708 0.058588285 -0.059276797 0.0189706 -0.11741642 0.25783163
-0.079307824 -0.16821103 0.08984753 -0.13556576 0.08769322 0.099325955 0.11520531 -0.117603526
-0.00012640854 -0.12911941 0.07296061 0.11606869 0.19612974 -0.23674868 0.12757793 -0.0604851
-0.11521248 0.09935083 0.007018235 -0.089367926 -0.04165941 -0.067164704 0.13222201 -0.10132591
-0.24358049 0.10937483 -0.019071074 -0.12075719 -0.044421874 -0.11007194 -0.0800975 0.18342641
0.20610121 -0.0762082 -0.10896221 0.09890478 0.22524558 -0.0811217 -0.08719921 -0.24557482
0.17517641 -0.1399954 -0.09979781 -0.15283377 0.13683848 0.17534013 0.18275736 0.09772249
-0.1746132 -0.027550235 0.061422773 0.05828525 0.02920976 0.08183593 0.08775832 -0.08820491
-0.13818094 0.17389575 0.19811359 0.030795835 0.11549485 -0.1806104 0.019108074 -0.24032962
0.20358989 0.015577717 -0.15115713 -0.06867424 -0.061932314 -0.15745072 -0.13128479 -0.19902354
0.2131325 -0.00071999355 0.02138961 -0.25181633 0.11597075 0.09284899 0.041068524 0.01211006
0.028613435 0.0850831 0.1375569 -0.24697798 -0.082106404 -0.08894898 0.103266634 -0.01513133
-0.15983638 0.16856344 -0.17603453 0.06723766 0.06171526 -0.096878834 0.123041734 0.16942598
-0.05341576 0.079748295 0.24228162 0.18225135 0.09668292 0.08051473 -0.08750259 -0.065345444

layers.0.bias f4 [512]
00000000: 5578 8ebd 6bba 053e 772a d6bd e527 17be
00000010: 9a7b 46bc a998 783d 28c9 60be 36d1 c2bb
00000020: 968d 17be 69b1 423d 45e0 26be ea01 46bd
00000030: 20e7 42bd fad2 1abe e91a 413d c80d e43d
00000040: 8bb2 a8bd cf58 1a3a 5063 2c3e dad0 e33d
00000050: f27f 3d3e 7d2f c93c 57c7 c53d e2e3 d13d
00000060: bcf4 163e 6cb2 183e c9d6 01be e07d a7bd
00000070: ba1c 0abe 7532 783d 02ed 4a3e 0bec a0bc
00000080: 9fee d43d 365d e73d 0e8d dfbd 1d68 d3bc
00000090: 8292 15be 8cce 0c3e 494c c8bc edb5 2abc
000000a0: a91d 2c3d 5036 9b3d 8c8b 0b3e ba4f 96bd
000000b0: c657 773c 0ab6 03be 0cfd ccbc 9943 ae3b
000000c0: 59a1 71bd ac49 1e3e 0559 af3d a2d8 09bd
000000d0: aaab f03d ee58 08bd 0434 38bc dd7e bdbc
000000e0: 666c 9f3c 6bc0 62bd b6f3 f43c 2347 23bd
000000f0: 44fb e73d b033 023e 6766 ca3d 9dcf b63b
00000100: 4cf6 05be ab8c 77bc d182 3fbe b2c7 54bc
00000110: bb58 413e b9fd 03be 3d98 cfbd 0f94 b23b
00000120: 4409 603d d6e9 d73b 008b 303e dc60 d3bc
00000130: c91d 15be 3910 a03d 9aa7 d3bc 1633 2ebe
00000140: b39f ea3d b1b7 aa3d 508b f3bd 068e 393c
00000150: b23a 273e cb13 53bc eaf5 b8bd f691 113e
00000160: e900 03be 50b2 233d 5066 26be 0792 b63d
00000170: 9d4b 08be af16 3f3e 11cc b0bb 63e0 e5bb
00000180: 345f aa3d b93b 4cbe bdca 3d3d 1054 bcbd
00000190: fcf0 0cbd e753 e5bd 3a13 20bd 65a9 e9bd
000001a0: ecad 22bd 4818 ccbb 6162 f1bd 53e4 353e
000001b0: 52e7 f83d e3c3 c43d 4e19 a2bc ddb1 a43d
000001c0: 5564 c43d 1082 853d af31 2a3e 74af 4b3e
000001d0: 05d0 d2bd d1af 2bbe 9fe2 1c3e 973a 27bd
000001e0: b27e ac3d 5386 2dbc 3a90 b73d d2fa 0b3e
000001f0: 048c 403e 676c 47bd 3b8a 363e beb0 13bd
00000200: f206 2c3e a167 fdbd e734 323e b2d6 013c
00000210: 33c2 d83d 223b 95bc ac6f a73d 82a6 9b3d
00000220: 7548 ccbd e390 203e 88a4 eebc 79de d93d
00000230: 3070 ee3d b27e a6bd 2b1a 27bc 87d1 1c3e
00000240: e08a 07be 1aa0 d3bc e9af 3e3e 2c84 97bd
00000250: cb65 77bd d6cf 11be bdfe 953d 5740 823c
00000260: f395 e7bd 8710 b13d e97f 173e c743 0abe
00000270: 59ce 803d 6fad ffbd 6e65 5abb 3201 bcbd
00000280: bf2c f0bd 3d91 e7bd cb00 95bd b6a3 a9bc
00000290: 5e28 b43d a421 1f3e 9190 243e 3559 0fbe
000002a0: 761b 1cbd 9680 b93c acb6 85bd 20ea c4bd
000002b0: a849 66bd b12b 323e 09f8 ebbd d551 c1bc
000002c0: e35b 0abe 7819 313e 0fa5 75bc 37de b63d
000002d0: 5c29 113e ac04 11be 51a2 bdbd 26e8 0b3e
000002e0: 571e 183e 8626 6e3c 20bd fc3d 0a1e 22be
000002f0: 6026 ec3c 38c3 d93d 6b8f 063e 6976 56bc
00000300: feb0 5cbd fefb 83bb a7e8 443e 1853 ddbd
00000310: 9bd8 8dbd 3d31 243e e024 e03d 9273 ddbd
00000320: b67a 993d 5053 ccbd be75 cf3d 9ac9 4cbe
00000330: b666 26bd 7c31 26be d532 36bd d921 753d
00000340: f8e8 02be 97e4 483e f35f fe3d 2811 2d3e
00000350: a795 413e b1f2 10be b653 6fbd 8a13 c23d
00000360: bbfe c03d b003 263e 6541 1d3e ad62 023d
00000370: b82a 423d c6f8 a5bd 5fd3 b43b defb 893d
00000380: 432e fa3d 4eff 053b 1575 39bb f54f 4bbe
00000390: f8d8 523e edb0 bd3c b45c a93d 6b69 51bc
000003a0: 23fc 7dbd 32fa b93d 2255 ddbc f7f7 ba3d
000003b0: df68 18be 0dd8 2e3d 106d 07be a512 b33d
000003c0: 4c9e 233e d998 203e 1e60 d23c e300 1ebd
000003d0: 35f8 c1bd da68 a9bd 56c0 71bc 0e1f 25be
000003e0: 3d6b 7bbd 4cdd e43d cf78 bdbc bbf7 2b3d
000003f0: e7b4 4a3e 2390 a8bd bbd4 8dbd 58d3 98bd
-0.06956545 0.13059394 -0.10457318 -0.14761312 -0.01211443 0.060692463 -0.21951735 -0.00594535
-0.14800104 0.047532473 -0.1629649 -0.04834167 -0.0475837 -0.15119544 0.047144804 0.11135441
-0.08237179 0.00058878673 0.1683476 0.1112382 0.18505839 0.024558777 0.09657162 0.10248543
0.14741796 0.14911813 -0.1267959 -0.081783056 -0.13487521 0.060594995 0.19816974 -0.019643804
0.10397076 0.112970755 -0.10915576 -0.025806481 -0.1460667 0.13750666 -0.024450438 -0.010419351
0.042020474 0.07578719 0.13627452 -0.073394254 0.01509661 -0.12862411 -0.025023006 0.005318117
-0.058991764 0.15457791 0.08561901 -0.033653863 0.11751492 -0.033287935 -0.01124287 -0.023131782
0.019460868 -0.055359285 0.029901367 -0.039862763 0.11327222 0.1271503 0.09882813 0.0055789487
-0.13082236 -0.015109221 -0.18702246 -0.012987064 0.18881504 -0.12889756 -0.10136459 0.005449779
0.054696336 0.0065891547 0.17240524 -0.025803022 -0.14562143 0.07815594 -0.025836755 -0.17011675
0.114562415 0.083358176 -0.11891806 0.011325365 0.16330984 -0.012883137 -0.090312794 0.14215836
-0.12793316 0.039964974 -0.16249967 0.08914571 -0.13310094 0.18660997 -0.0053954204 -0.0070152744
0.0831894 -0.19944657 0.046335924 -0.09195721 -0.034409508 -0.11197644 -0.039080836 -0.114092626
-0.039716646 -0.0062284805 -0.117863424 0.1776288 0.12153496 0.09607675 -0.019787457 0.08041737
0.09589449 0.06518948 0.16620515 0.19891149 -0.10293583 -0.16766287 0.15320824 -0.04082736
0.08422603 -0.010591107 0.08963056 0.13669899 0.18803412 -0.048687365 0.17826168 -0.036057226
0.16799524 -0.12373281 0.17402993 0.0079247225 0.105839156 -0.018216673 0.081755966 0.07600118
-0.099747576 0.1568027 -0.029131189 0.106381364 0.11642492 -0.08129634 -0.01019911 0.15314303
-0.1323657 -0.025833178 0.18621792 -0.07398257 -0.06039981 -0.1423944 0.07323978 0.01589982
-0.113078974 0.086457305 0.14794888 -0.13502418 0.06289358 -0.12484252 -0.0033324617 -0.091799155
-0.11727285 -0.11306999 -0.07275542 -0.020707946 0.08796762 0.15540177 0.16070773 -0.13998874
-0.038112126 0.022644322 -0.065289825 -0.09614968 -0.056222588 0.1739948 -0.11521918 -0.02359859
-0.13511615 0.17294872 -0.014992966 0.08929103 0.14175934 -0.14161938 -0.09259475 0.13662776
0.14855324 0.014535552 0.1234076 -0.15831771 0.028826892 0.10632938 0.13140647 -0.013089755
-0.05387973 -0.0040278425 0.19229375 -0.108068645 -0.0692608 0.16034408 0.10944533 -0.10813059
0.074941084 -0.09976828 0.101298794 -0.1999878 -0.040625297 -0.16229814 -0.04448207 0.059846733
-0.12784183 0.1961845 0.124206446 0.16901076 0.18904744 -0.1415508 -0.058429442 0.09476383
0.09423586 0.16212344 0.15356977 0.031832386 0.04740402 -0.081040904 0.0055183615 0.06737493
0.12215855 0.0020446363 -0.0028298546 -0.1985472 0.2059058 0.023155654 0.08269635 -0.012781481
-0.062008034 0.09080924 -0.027018134 0.09129327 -0.14883755 0.04268651 -0.13225198 0.087437905
0.15978354 0.15683307 0.025680598 -0.038575064 -0.0947117 -0.08271952 -0.014755329 -0.16125128
-0.061381567 0.111750215 -0.023128895 0.0419843 0.19795571 -0.08230617 -0.06925341 -0.074621856

layers.3.weight f4 [16, 512]
00000000: 8d70 8bbc 5ca0 dabd 78b4 993c fcbb 98bc
00000010: f243 ccbc df75 963b 5d61 8cbc 7f80 86bd
00000020: b0d8 8bbd 11dd 33bd bca7 dcbd d742 83bc
00000030: 1a72 b0bd 0de5 cfbc 80fc 2b3c 07f9 ab3d
00000040: 151a 5c3c b18d 20bd 0737 ba3d 9f09 03bc
00000050: e7e7 563d b0a3 503d 49c0 e93c ac49 313d
00000060: 2608 1ebd d1bc 0a3d ca94 2c3d 6401 8e3c
00000070: 68c4 bb3c 3270 bcbd ce54 95bc 41aa a4bd
00000080: 9b3c 523d 2be5 49bb 9245 b9bc 467b 2cbd
00000090: ecf6 7a3d 6bfa 8b3d 4760 8c3d ba9d 16bd
000000a0: b7df f2bb be3e 4b3d 327d b1bc 0e38 13bc
000000b0: 428f b6bd e82b 003d e11f 39bd 1888 47bd
000000c0: 14ac 463d c21a c4bc 0c2a febb 86ef d8bc
000000d0: bcdb db3c f907 5fbd ba84 b1bb cf52 b3bd
000000e0: 6046 703d 3fb5 4e3d 64d5 26bd f1eb 863c
000000f0: 6d5f 2cbd 28fa a43c d8db a8bd c926 55bd
00000100: 6121 13bd 2e71 a7bc e643 873d 072f 133d
00000110: 4d31 a13c bb3b ad3c 0d4f 5c3d f5d9 e53c
00000120: 6835 15bc 1fdd 643d 3077 443c 96e4 9a3d
00000130: 2fe2 f8bc 9d1e 2cbc 0f12 d83d 0615 d43d
00000140: ad8b aa3d 8103 913d b0e3 cebd b93d 33bd
00000150: c1a8 c3bc 2762 bd3d 85a7 28bd ab53 883d
00000160: 635f e2bd d775 753c 4be7 4bbe fbf0 c1bc
00000170: 2244 53bb 743a 223a 7c07 db3b 5eb3 753d
00000180: 94ae 25bd 1347 d93c 0a0c f63b 2429 903c
00000190: bc49 fcbc d404 0cbd f4a5 853c cbd8 3ebd
000001a0: 9e6c 283d c87b 483c ef9f 9a3d c5a0 a8bd
000001b0: d5e4 cabd b7a3 60bc 13e0 013b 42e3 533d
000001c0: ea36 b4bd b43d 5bbd dc21 f33b 312c 553d
000001d0: 0948 9b3d 5d33 6b3d c06b 9dbc 91b1 4bbd
000001e0: 5e42 643d 8114 0e3d 1252 fdba e226 683d
000001f0: f449 333c ba7f 463c 468a 9bbd c100 e9bc
00000200: 2e23 513c 2571 af3d 3c5c eb3c 7584 bcbd
00000210: 922f 0a3c 4a48 0ebd 372a cb3c fa3d f23c
00000220: 1176 273d 4759 543d 6ffd 95bb d713 4d3d
00000230: a8ed d8bc 8cb6 293d 2135 a33a efaa 19bd
00000240: dc8b 843d f1db 4dbd 9bc4 e43a f9c7 94bd
00000250: 40bb 94bd 414f 91bc eba8 a93d 96d9 3ebd
00000260: 5d9e c2bc aaeb f4bc 4e0c f33c 083a 58bc
00000270: 0ae9 6c3d c812 9a3d 465b 823b 6f7c 193d
00000280: 43f1 9d3d 36df 87bd 1c51 bebc 047f a03d
00000290: 415d c13c 2e52 ff3c 88e3 373d d808 773c
000002a0: 300c f33c 1d06 cc3d 540c 293d 4283 afbd
000002b0: 1817 86bd 1738 0ebd f6f1 41bd 6c9c e63b
000002c0: d5a5 4e3b 5447 a03d 2dfa 8a3c b1a9 cf3d
000002d0: be52 5c3d c37e ddbb 540b c6bd c0ab b2bc
000002e0: b627 753d c4ec 8bbb cb47 623d 2a55 12bd
000002f0: 73b0 023c dc42 613d a366 a53a 9534 5cbd
00000300: 8d4e 2abd a1ae 9abc 62bc 6d3d a16e a8bd
00000310: 2ab5 c43d 5b19 88bd db66 d6bc e93b 4fbd
00000320: 8b0f 5b3d 883e ce3d 26b2 6a3d 9afa 5fbd
00000330: 3cd0 e2bc 0efb da3c 559b 60bb 95db bbbc
00000340: d7da e93b 627d 83bd c079 25bc 3d7f 65bd
00000350: 2ee7 473d f30f 193d 9e2a 2cbd 02b1 163d
00000360: 561e 2b3d 6ba6 d9bc cd95 613d 6e17 5cbd
00000370: e756 563d b412 93bd dbba 8abd 7fe3 333c
00000380: 565b ec3a 1b81 dcbc de6f abbd e613 d63b
00000390: 3b5c 073d fe21 133d afb0 393d 5698 00bd
000003a0: 8e65 45bd 40b8 adbc e393 98bb 672b 74bc
000003b0: c38a d33c 87c1 82bd 70d6 14bd c9d7 763c
000003c0: 746e a7bd 36d9 893c 8bea 443c 0dba 273d
000003d0: d9fa f73c 87ca 0bbd 1602 2b3b 4920 643d
000003e0: b972 4a3d e420 d83d bcd0 273d c370 4b3d
000003f0: 2d05 8fbd 4dd4 b83d d0ee 27bd eb5f 69bd
-0.017021442 -0.106751174 0.018762812 -0.018644325 -0.024934743 0.004591688 -0.01713627 -0.065674774
-0.06828439 -0.043911997 -0.1077418 -0.016023083 -0.08615513 -0.025377775 0.010497212 0.083971076
0.013433953 -0.039197627 0.09092527 -0.007997899 0.052467253 0.050937355 0.028534072 0.04328315
-0.03858199 0.033871476 0.042134084 0.017334647 0.022920802 -0.09201087 -0.018228915 -0.08040286
0.05132733 -0.003080676 -0.022616182 -0.04210975 0.06127064 0.06834873 0.06854301 -0.036771514
-0.007411923 0.049620382 -0.021666143 -0.008985532 -0.08914043 0.031291872 -0.045196418 -0.048713773
0.04850395 -0.02393854 -0.007756477 -0.026481401 0.026838176 -0.054450963 -0.0054174336 -0.08756029
0.058660865 0.05046582 -0.04073085 0.016469928 -0.042083193 0.020138815 -0.08245057 -0.05203894
-0.035920504 -0.02043971 0.066047475 0.03593352 0.019676829 0.021146646 0.053786326 0.028058032
-0.009106971 0.05587494 0.011991307 0.075631306 -0.03038129 -0.010505346 0.105503194 0.103555724
0.08327422 0.070807464 -0.10102022 -0.043760035 -0.02388418 0.09247237 -0.041175384 0.066565834
-0.1105335 0.0149817085 -0.1991245 -0.023674479 -0.0032236655 0.000618852 0.006684242 0.05998551
-0.040449694 0.026523149 0.0075087594 0.017597742 -0.030796878 -0.034184292 0.016314484 -0.04659347
0.04111921 0.012236543 0.07550036 -0.08233789 -0.099069275 -0.013710908 0.0019817397 0.0517304
-0.087995365 -0.05352564 0.007419808 0.052044097 0.07582099 0.05742203 -0.019216418 -0.049729887
0.055727355 0.034687523 -0.0019326827 0.056677707 0.010942925 0.012115413 -0.07594733 -0.028442742
0.012764735 0.085665025 0.028730504 -0.09204952 0.008434193 -0.03473691 0.024800403 0.029570568
0.04088408 0.051842954 -0.004577331 0.05006775 -0.02648051 0.041433856 0.0012451747 -0.03751653
0.064719886 -0.05025858 0.0017453613 -0.07264704 -0.072622776 -0.017737987 0.08284172 -0.046594225
-0.023757154 -0.02989753 0.029668953 -0.0131974295 0.05783943 0.075231135 0.003978166 0.037472185
0.07712033 -0.06634371 -0.023232035 0.07836726 0.023604037 0.031167116 0.044894725 0.015077792
0.029668897 0.099621035 0.041271523 -0.08569957 -0.065473735 -0.03472146 -0.047349893 0.00703769
0.003153195 0.07826105 0.016964996 0.10139788 0.053789847 -0.006759496 -0.096701294 -0.021810412
0.059852324 -0.004270168 0.05524425 -0.03572575 0.007976639 0.054995403 0.0012619089 -0.053761084
-0.041578818 -0.018882098 0.058040984 -0.08224226 0.09604867 -0.06645461 -0.026172092 -0.050594244
0.05348162 0.10070521 0.0572988 -0.05468235 -0.027687185 0.02673104 -0.0034272273 -0.022931853
0.0071366834 -0.06420399 -0.010099828 -0.056029547 0.048804455 0.037368726 -0.04203283 0.0367899
0.041776977 -0.026568612 0.0550745 -0.05373328 0.05232897 -0.07181302 -0.06773921 0.010979532
0.0018032591 -0.026917031 -0.08370946 0.006533134 0.033046942 0.03592109 0.045334514 -0.03139528
-0.048192553 -0.021206021 -0.0046563013 -0.014902926 0.025823003 -0.06384569 -0.036337316 0.015066096
-0.08175364 0.016827207 0.01201881 0.040948916 0.03027098 -0.034128692 0.0026093773 0.055694852
0.049425814 0.105531484 0.04097055 0.049668085 -0.06983409 0.09024868 -0.040999234 -0.05697624

layers.3.bias f4 [16]
00000000: 083e 883c 424a 6e3d f906 75bc b716 db3b
00000010: f311 543c 1374 113d 5584 26bc 6247 a53c
00000020: 52e6 423d 1a89 e43b c392 b33c cb68 863c
00000030: 3d2d db3b 0657 b7bc 97a4 9c3d 23f6 e0bb
0.016631141 0.058176287 -0.014955276 0.0066860574 0.012943733 0.035511088 -0.010163386 0.02017564
0.04758293 0.0069743516 0.021920567 0.016407391 0.0066887424 -0.022380363 0.076485805 -0.0068652793

val_4 f4 [16, 1]
00000000: 581e 3b3e 0679 a7bd 223d 27be 7ec3 9c3e
00000010: ad5c 553e d04d dcbd bde9 e63d b483 103e
00000020: a587 95bd a07c 953e d037 c63d 15ab 92bd
00000030: 85f2 913e 01f3 273e 037d ed3d 9968 313e
0.18273294 -0.0817738 -0.16331914 0.306179 0.20836134 -0.10757029 0.11275051 0.14112741
-0.07301263 0.29196644 0.09678614 -0.071615376 0.2850534 0.16401292 0.1159611 0.17325057
